{"format": "layers-model", "generatedBy": "keras v3.13.2", "convertedBy": "TensorFlow.js Converter v4.22.0", "modelTopology": {"keras_version": "3.13.2", "backend": "tensorflow", "model_config": {"class_name": "Sequential", "config": {"name": "mnist_dense", "trainable": true, "dtype": {"module": "keras", "class_name": "DTypePolicy", "config": {"name": "float32"}, "registered_name": null}, "layers": [{"class_name": "InputLayer", "config": {"batch_shape": [null, 784], "dtype": "float32", "sparse": false, "ragged": false, "name": "input", "optional": false}}, {"class_name": "Dense", "config": {"name": "dense1", "trainable": true, "dtype": {"module": "keras", "class_name": "DTypePolicy", "config": {"name": "float32"}, "registered_name": null}, "units": 128, "activation": "relu", "use_bias": true, "kernel_initializer": {"module": "keras.initializers", "class_name": "GlorotUniform", "config": {"seed": null}, "registered_name": null}, "bias_initializer": {"module": "keras.initializers", "class_name": "Zeros", "config": {}, "registered_name": null}, "kernel_regularizer": null, "bias_regularizer": null, "kernel_constraint": null, "bias_constraint": null, "quantization_config": null}}, {"class_name": "Dense", "config": {"name": "dense2", "trainable": true, "dtype": {"module": "keras", "class_name": "DTypePolicy", "config": {"name": "float32"}, "registered_name": null}, "units": 64, "activation": "relu", "use_bias": true, "kernel_initializer": {"module": "keras.initializers", "class_name": "GlorotUniform", "config": {"seed": null}, "registered_name": null}, "bias_initializer": {"module": "keras.initializers", "class_name": "Zeros", "config": {}, "registered_name": null}, "kernel_regularizer": null, "bias_regularizer": null, "kernel_constraint": null, "bias_constraint": null, "quantization_config": null}}, {"class_name": "Dense", "config": {"name": "output", "trainable": true, "dtype": {"module": "keras", "class_name": "DTypePolicy", "config": {"name": "float32"}, "registered_name": null}, "units": 10, "activation": "softmax", "use_bias": true, "kernel_initializer": {"module": "keras.initializers", "class_name": "GlorotUniform", "config": {"seed": null}, "registered_name": null}, "bias_initializer": {"module": "keras.initializers", "class_name": "Zeros", "config": {}, "registered_name": null}, "kernel_regularizer": null, "bias_regularizer": null, "kernel_constraint": null, "bias_constraint": null, "quantization_config": null}}], "build_input_shape": [null, 784]}}, "training_config": {"loss": "sparse_categorical_crossentropy", "loss_weights": null, "metrics": ["accuracy"], "weighted_metrics": null, "run_eagerly": false, "steps_per_execution": 1, "jit_compile": false, "optimizer_config": {"class_name": "Adam", "config": {"name": "adam", "learning_rate": 0.0010000000474974513, "weight_decay": null, "clipnorm": null, "global_clipnorm": null, "clipvalue": null, "use_ema": false, "ema_momentum": 0.99, "ema_overwrite_frequency": null, "loss_scale_factor": null, "gradient_accumulation_steps": null, "beta_1": 0.9, "beta_2": 0.999, "epsilon": 1e-07, "amsgrad": false}}}}, "weightsManifest": [{"paths": ["group1-shard1of1.bin"], "weights": [{"name": "mnist_dense/dense1/kernel", "shape": [784, 128], "dtype": "float32"}, {"name": "mnist_dense/dense1/bias", "shape": [128], "dtype": "float32"}, {"name": "mnist_dense/dense2/kernel", "shape": [128, 64], "dtype": "float32"}, {"name": "mnist_dense/dense2/bias", "shape": [64], "dtype": "float32"}, {"name": "mnist_dense/output/kernel", "shape": [64, 10], "dtype": "float32"}, {"name": "mnist_dense/output/bias", "shape": [10], "dtype": "float32"}]}]}